…
	Dataset enlarge ratio: 1
	Batch size per gpu: 16
	World size (gpu number): 1
	Require iter number per epoch: 675
	Total epochs: 445; iters: 300000.
2024-11-07 01:18:06,346 INFO: Dataset Dataset_PairedImage - ValSet is created.
2024-11-07 01:18:06,346 INFO: Number of val images/folders in ValSet: 10800
2024-11-07 01:18:06,346 INFO: Set pretrain_network_g to /home/nvidia/heqing/code/MIRNetv2_1104/experiments/RealDenoising_MIRNet_v2_1106/models/net_g_4000.pth
2024-11-07 01:18:06,523 INFO: Network: DistributedDataParallel - MIRNet_v2, with parameters: 6,396,192
2024-11-07 01:18:06,523 INFO: MIRNet_v2(
  (conv_in): Conv2d(1, 64, kernel_size=(3, 3), stride=(1, 1), padding=(1, 1), bias=False)
  (mrb1): MRB(
    (dau_top): RCB(
      (body): Sequential(
        (0): Conv2d(64, 64, kernel_size=(3, 3), stride=(1, 1), padding=(1, 1), bias=False)
        (1): LeakyReLU(negative_slope=0.2)
        (2): Conv2d(64, 64, kernel_size=(3, 3), stride=(1, 1), padding=(1, 1), bias=False)
        (3): LeakyReLU(negative_slope=0.2)
        (4): Conv2d(64, 64, kernel_size=(3, 3), stride=(1, 1), padding=(1, 1), bias=False)
        (5): LeakyReLU(negative_slope=0.2)
        (6): Conv2d(64, 64, kernel_size=(3, 3), stride=(1, 1), padding=(1, 1), bias=False)
      )
      (act): LeakyReLU(negative_slope=0.2)
      (afnp): AFNPBlock(
        (Conv_query): Sequential(
          (0): Conv2d(64, 32, kernel_size=(1, 1), stride=(1, 1))
          (1): BatchNorm2d(32, eps=1e-05, momentum=0.1, affine=True, track_running_stats=True)
          (2): ReLU()
        )
        (Conv_key): Sequential(
          (0): Conv2d(64, 32, kernel_size=(1, 1), stride=(1, 1))
          (1): BatchNorm2d(32, eps=1e-05, momentum=0.1, affine=True, track_running_stats=True)
          (2): ReLU()
        )
        (Conv_value): Conv2d(64, 64, kernel_size=(1, 1), stride=(1, 1))
        (ConvOut): Conv2d(64, 64, kernel_size=(1, 1), stride=(1, 1))
        (ppm): PPMModule(
          (0): Sequential(
            (0): AdaptiveAvgPool2d(output_size=1)
          )
          (1): Sequential(
            (0): AdaptiveAvgPool2d(output_size=2)
          )
          (2): Sequential(
            (0): AdaptiveAvgPool2d(output_size=4)
          )
          (3): Sequential(
            (0): AdaptiveAvgPool2d(output_size=8)
          )
        )
      )
    )
    (dau_mid): RCB(
      (body): Sequential(
        (0): Conv2d(128, 128, kernel_size=(3, 3), stride=(1, 1), padding=(1, 1), bias=False)
        (1): LeakyReLU(negative_slope=0.2)
        (2): Conv2d(128, 128, kernel_size=(3, 3), stride=(1, 1), padding=(1, 1), bias=False)
        (3): LeakyReLU(negative_slope=0.2)
        (4): Conv2d(128, 128, kernel_size=(3, 3), stride=(1, 1), padding=(1, 1), bias=False)
        (5): LeakyReLU(negative_slope=0.2)
        (6): Conv2d(128, 128, kernel_size=(3, 3), stride=(1, 1), padding=(1, 1), bias=False)
      )
      (act): LeakyReLU(negative_slope=0.2)
      (afnp): AFNPBlock(
        (Conv_query): Sequential(
          (0): Conv2d(128, 64, kernel_size=(1, 1), stride=(1, 1))
          (1): BatchNorm2d(64, eps=1e-05, momentum=0.1, affine=True, track_running_stats=True)
          (2): ReLU()
        )
        (Conv_key): Sequential(
          (0): Conv2d(128, 64, kernel_size=(1, 1), stride=(1, 1))
          (1): BatchNorm2d(64, eps=1e-05, momentum=0.1, affine=True, track_running_stats=True)
          (2): ReLU()
        )
        (Conv_value): Conv2d(128, 128, kernel_size=(1, 1), stride=(1, 1))
        (ConvOut): Conv2d(128, 128, kernel_size=(1, 1), stride=(1, 1))
        (ppm): PPMModule(
          (0): Sequential(
            (0): AdaptiveAvgPool2d(output_size=1)
          )
          (1): Sequential(
            (0): AdaptiveAvgPool2d(output_size=2)
          )
          (2): Sequential(
            (0): AdaptiveAvgPool2d(output_size=4)
          )
          (3): Sequential(
            (0): AdaptiveAvgPool2d(output_size=8)
          )
        )
      )
    )
    (dau_bot): RCB(
      (body): Sequential(
        (0): Conv2d(256, 256, kernel_size=(3, 3), stride=(1, 1), padding=(1, 1), bias=False)
        (1): LeakyReLU(negative_slope=0.2)
        (2): Conv2d(256, 256, kernel_size=(3, 3), stride=(1, 1), padding=(1, 1), bias=False)
        (3): LeakyReLU(negative_slope=0.2)
        (4): Conv2d(256, 256, kernel_size=(3, 3), stride=(1, 1), padding=(1, 1), bias=False)
        (5): LeakyReLU(negative_slope=0.2)
        (6): Conv2d(256, 256, kernel_size=(3, 3), stride=(1, 1), padding=(1, 1), bias=False)
      )
      (act): LeakyReLU(negative_slope=0.2)
      (afnp): AFNPBlock(
        (Conv_query): Sequential(
          (0): Conv2d(256, 128, kernel_size=(1, 1), stride=(1, 1))
          (1): BatchNorm2d(128, eps=1e-05, momentum=0.1, affine=True, track_running_stats=True)
          (2): ReLU()
        )
        (Conv_key): Sequential(
          (0): Conv2d(256, 128, kernel_size=(1, 1), stride=(1, 1))
          (1): BatchNorm2d(128, eps=1e-05, momentum=0.1, affine=True, track_running_stats=True)
          (2): ReLU()
        )
        (Conv_value): Conv2d(256, 256, kernel_size=(1, 1), stride=(1, 1))
        (ConvOut): Conv2d(256, 256, kernel_size=(1, 1), stride=(1, 1))
        (ppm): PPMModule(
          (0): Sequential(
            (0): AdaptiveAvgPool2d(output_size=1)
          )
          (1): Sequential(
            (0): AdaptiveAvgPool2d(output_size=2)
          )
          (2): Sequential(
            (0): AdaptiveAvgPool2d(output_size=4)
          )
          (3): Sequential(
            (0): AdaptiveAvgPool2d(output_size=8)
          )
        )
      )
    )
    (down2): DownSample(
      (body): Sequential(
        (0): Down(
          (bot): Sequential(
            (0): AvgPool2d(kernel_size=2, stride=2, padding=0)
            (1): Conv2d(64, 128, kernel_size=(1, 1), stride=(1, 1), bias=False)
          )
        )
      )
    )
    (down4): Sequential(
      (0): DownSample(
        (body): Sequential(
          (0): Down(
            (bot): Sequential(
              (0): AvgPool2d(kernel_size=2, stride=2, padding=0)
              (1): Conv2d(64, 128, kernel_size=(1, 1), stride=(1, 1), bias=False)
            )
          )
        )
      )
      (1): DownSample(
        (body): Sequential(
          (0): Down(
            (bot): Sequential(
              (0): AvgPool2d(kernel_size=2, stride=2, padding=0)
              (1): Conv2d(128, 256, kernel_size=(1, 1), stride=(1, 1), bias=False)
            )
          )
        )
      )
    )
    (up21): UpSample(
      (body): Sequential(
        (0): Up(
          (bot): Sequential(
            (0): Conv2d(128, 64, kernel_size=(1, 1), stride=(1, 1), bias=False)
            (1): Upsample(scale_factor=2.0, mode=bilinear)
          )
        )
      )
    )
    (up32): UpSample(
      (body): Sequential(
        (0): Up(
          (bot): Sequential(
            (0): Conv2d(256, 128, kernel_size=(1, 1), stride=(1, 1), bias=False)
            (1): Upsample(scale_factor=2.0, mode=bilinear)
          )
        )
      )
    )
    (conv_out): Conv2d(64, 64, kernel_size=(1, 1), stride=(1, 1), bias=False)
    (skff_top): SKFF(
      (avg_pool): AdaptiveAvgPool2d(output_size=1)
      (conv_du): Sequential(
        (0): Conv2d(64, 8, kernel_size=(1, 1), stride=(1, 1), bias=False)
        (1): LeakyReLU(negative_slope=0.2)
      )
      (fcs): ModuleList(
        (0): Conv2d(8, 64, kernel_size=(1, 1), stride=(1, 1), bias=False)
        (1): Conv2d(8, 64, kernel_size=(1, 1), stride=(1, 1), bias=False)
      )
      (softmax): Softmax(dim=1)
    )
    (skff_mid): SKFF(
      (avg_pool): AdaptiveAvgPool2d(output_size=1)
      (conv_du): Sequential(
        (0): Conv2d(128, 16, kernel_size=(1, 1), stride=(1, 1), bias=False)
        (1): LeakyReLU(negative_slope=0.2)
      )
      (fcs): ModuleList(
        (0): Conv2d(16, 128, kernel_size=(1, 1), stride=(1, 1), bias=False)
        (1): Conv2d(16, 128, kernel_size=(1, 1), stride=(1, 1), bias=False)
      )
      (softmax): Softmax(dim=1)
    )
  )
  (mrb2): MRB(
    (dau_top): RCB(
      (body): Sequential(
        (0): Conv2d(64, 64, kernel_size=(3, 3), stride=(1, 1), padding=(1, 1), groups=2, bias=False)
        (1): LeakyReLU(negative_slope=0.2)
        (2): Conv2d(64, 64, kernel_size=(3, 3), stride=(1, 1), padding=(1, 1), groups=2, bias=False)
        (3): LeakyReLU(negative_slope=0.2)
        (4): Conv2d(64, 64, kernel_size=(3, 3), stride=(1, 1), padding=(1, 1), groups=2, bias=False)
        (5): LeakyReLU(negative_slope=0.2)
        (6): Conv2d(64, 64, kernel_size=(3, 3), stride=(1, 1), padding=(1, 1), groups=2, bias=False)
      )
      (act): LeakyReLU(negative_slope=0.2)
      (afnp): AFNPBlock(
        (Conv_query): Sequential(
          (0): Conv2d(64, 32, kernel_size=(1, 1), stride=(1, 1))
          (1): BatchNorm2d(32, eps=1e-05, momentum=0.1, affine=True, track_running_stats=True)
          (2): ReLU()
        )
        (Conv_key): Sequential(
          (0): Conv2d(64, 32, kernel_size=(1, 1), stride=(1, 1))
          (1): BatchNorm2d(32, eps=1e-05, momentum=0.1, affine=True, track_running_stats=True)
          (2): ReLU()
        )
        (Conv_value): Conv2d(64, 64, kernel_size=(1, 1), stride=(1, 1))
        (ConvOut): Conv2d(64, 64, kernel_size=(1, 1), stride=(1, 1))
        (ppm): PPMModule(
          (0): Sequential(
            (0): AdaptiveAvgPool2d(output_size=1)
          )
          (1): Sequential(
            (0): AdaptiveAvgPool2d(output_size=2)
          )
          (2): Sequential(
            (0): AdaptiveAvgPool2d(output_size=4)
          )
          (3): Sequential(
            (0): AdaptiveAvgPool2d(output_size=8)
          )
        )
      )
    )
    (dau_mid): RCB(
      (body): Sequential(
        (0): Conv2d(128, 128, kernel_size=(3, 3), stride=(1, 1), padding=(1, 1), groups=2, bias=False)
        (1): LeakyReLU(negative_slope=0.2)
        (2): Conv2d(128, 128, kernel_size=(3, 3), stride=(1, 1), padding=(1, 1), groups=2, bias=False)
        (3): LeakyReLU(negative_slope=0.2)
        (4): Conv2d(128, 128, kernel_size=(3, 3), stride=(1, 1), padding=(1, 1), groups=2, bias=False)
        (5): LeakyReLU(negative_slope=0.2)
        (6): Conv2d(128, 128, kernel_size=(3, 3), stride=(1, 1), padding=(1, 1), groups=2, bias=False)
      )
      (act): LeakyReLU(negative_slope=0.2)
      (afnp): AFNPBlock(
        (Conv_query): Sequential(
          (0): Conv2d(128, 64, kernel_size=(1, 1), stride=(1, 1))
          (1): BatchNorm2d(64, eps=1e-05, momentum=0.1, affine=True, track_running_stats=True)
          (2): ReLU()
        )
        (Conv_key): Sequential(
          (0): Conv2d(128, 64, kernel_size=(1, 1), stride=(1, 1))
          (1): BatchNorm2d(64, eps=1e-05, momentum=0.1, affine=True, track_running_stats=True)
          (2): ReLU()
        )
        (Conv_value): Conv2d(128, 128, kernel_size=(1, 1), stride=(1, 1))
        (ConvOut): Conv2d(128, 128, kernel_size=(1, 1), stride=(1, 1))
        (ppm): PPMModule(
          (0): Sequential(
            (0): AdaptiveAvgPool2d(output_size=1)
          )
          (1): Sequential(
            (0): AdaptiveAvgPool2d(output_size=2)
          )
          (2): Sequential(
            (0): AdaptiveAvgPool2d(output_size=4)
          )
          (3): Sequential(
            (0): AdaptiveAvgPool2d(output_size=8)
          )
        )
      )
    )
    (dau_bot): RCB(
      (body): Sequential(
        (0): Conv2d(256, 256, kernel_size=(3, 3), stride=(1, 1), padding=(1, 1), groups=2, bias=False)
        (1): LeakyReLU(negative_slope=0.2)
        (2): Conv2d(256, 256, kernel_size=(3, 3), stride=(1, 1), padding=(1, 1), groups=2, bias=False)
        (3): LeakyReLU(negative_slope=0.2)
        (4): Conv2d(256, 256, kernel_size=(3, 3), stride=(1, 1), padding=(1, 1), groups=2, bias=False)
        (5): LeakyReLU(negative_slope=0.2)
        (6): Conv2d(256, 256, kernel_size=(3, 3), stride=(1, 1), padding=(1, 1), groups=2, bias=False)
      )
      (act): LeakyReLU(negative_slope=0.2)
      (afnp): AFNPBlock(
        (Conv_query): Sequential(
          (0): Conv2d(256, 128, kernel_size=(1, 1), stride=(1, 1))
          (1): BatchNorm2d(128, eps=1e-05, momentum=0.1, affine=True, track_running_stats=True)
          (2): ReLU()
        )
        (Conv_key): Sequential(
          (0): Conv2d(256, 128, kernel_size=(1, 1), stride=(1, 1))
          (1): BatchNorm2d(128, eps=1e-05, momentum=0.1, affine=True, track_running_stats=True)
          (2): ReLU()
        )
        (Conv_value): Conv2d(256, 256, kernel_size=(1, 1), stride=(1, 1))
        (ConvOut): Conv2d(256, 256, kernel_size=(1, 1), stride=(1, 1))
        (ppm): PPMModule(
          (0): Sequential(
            (0): AdaptiveAvgPool2d(output_size=1)
          )
          (1): Sequential(
            (0): AdaptiveAvgPool2d(output_size=2)
          )
          (2): Sequential(
            (0): AdaptiveAvgPool2d(output_size=4)
          )
          (3): Sequential(
            (0): AdaptiveAvgPool2d(output_size=8)
          )
        )
      )
    )
    (down2): DownSample(
      (body): Sequential(
        (0): Down(
          (bot): Sequential(
            (0): AvgPool2d(kernel_size=2, stride=2, padding=0)
            (1): Conv2d(64, 128, kernel_size=(1, 1), stride=(1, 1), bias=False)
          )
        )
      )
    )
    (down4): Sequential(
      (0): DownSample(
        (body): Sequential(
          (0): Down(
            (bot): Sequential(
              (0): AvgPool2d(kernel_size=2, stride=2, padding=0)
              (1): Conv2d(64, 128, kernel_size=(1, 1), stride=(1, 1), bias=False)
            )
          )
        )
      )
      (1): DownSample(
        (body): Sequential(
          (0): Down(
            (bot): Sequential(
              (0): AvgPool2d(kernel_size=2, stride=2, padding=0)
              (1): Conv2d(128, 256, kernel_size=(1, 1), stride=(1, 1), bias=False)
            )
          )
        )
      )
    )
    (up21): UpSample(
      (body): Sequential(
        (0): Up(
          (bot): Sequential(
            (0): Conv2d(128, 64, kernel_size=(1, 1), stride=(1, 1), bias=False)
            (1): Upsample(scale_factor=2.0, mode=bilinear)
          )
        )
      )
    )
    (up32): UpSample(
      (body): Sequential(
        (0): Up(
          (bot): Sequential(
            (0): Conv2d(256, 128, kernel_size=(1, 1), stride=(1, 1), bias=False)
            (1): Upsample(scale_factor=2.0, mode=bilinear)
          )
        )
      )
    )
    (conv_out): Conv2d(64, 64, kernel_size=(1, 1), stride=(1, 1), bias=False)
    (skff_top): SKFF(
      (avg_pool): AdaptiveAvgPool2d(output_size=1)
      (conv_du): Sequential(
        (0): Conv2d(64, 8, kernel_size=(1, 1), stride=(1, 1), bias=False)
        (1): LeakyReLU(negative_slope=0.2)
      )
      (fcs): ModuleList(
        (0): Conv2d(8, 64, kernel_size=(1, 1), stride=(1, 1), bias=False)
        (1): Conv2d(8, 64, kernel_size=(1, 1), stride=(1, 1), bias=False)
      )
      (softmax): Softmax(dim=1)
    )
    (skff_mid): SKFF(
      (avg_pool): AdaptiveAvgPool2d(output_size=1)
      (conv_du): Sequential(
        (0): Conv2d(128, 16, kernel_size=(1, 1), stride=(1, 1), bias=False)
        (1): LeakyReLU(negative_slope=0.2)
      )
      (fcs): ModuleList(
        (0): Conv2d(16, 128, kernel_size=(1, 1), stride=(1, 1), bias=False)
        (1): Conv2d(16, 128, kernel_size=(1, 1), stride=(1, 1), bias=False)
      )
      (softmax): Softmax(dim=1)
    )
  )
  (mrb3): MRB(
    (dau_top): RCB(
      (body): Sequential(
        (0): Conv2d(64, 64, kernel_size=(3, 3), stride=(1, 1), padding=(1, 1), groups=4, bias=False)
        (1): LeakyReLU(negative_slope=0.2)
        (2): Conv2d(64, 64, kernel_size=(3, 3), stride=(1, 1), padding=(1, 1), groups=4, bias=False)
        (3): LeakyReLU(negative_slope=0.2)
        (4): Conv2d(64, 64, kernel_size=(3, 3), stride=(1, 1), padding=(1, 1), groups=4, bias=False)
        (5): LeakyReLU(negative_slope=0.2)
        (6): Conv2d(64, 64, kernel_size=(3, 3), stride=(1, 1), padding=(1, 1), groups=4, bias=False)
      )
      (act): LeakyReLU(negative_slope=0.2)
      (afnp): AFNPBlock(
        (Conv_query): Sequential(
          (0): Conv2d(64, 32, kernel_size=(1, 1), stride=(1, 1))
          (1): BatchNorm2d(32, eps=1e-05, momentum=0.1, affine=True, track_running_stats=True)
          (2): ReLU()
        )
        (Conv_key): Sequential(
          (0): Conv2d(64, 32, kernel_size=(1, 1), stride=(1, 1))
          (1): BatchNorm2d(32, eps=1e-05, momentum=0.1, affine=True, track_running_stats=True)
          (2): ReLU()
        )
        (Conv_value): Conv2d(64, 64, kernel_size=(1, 1), stride=(1, 1))
        (ConvOut): Conv2d(64, 64, kernel_size=(1, 1), stride=(1, 1))
        (ppm): PPMModule(
          (0): Sequential(
            (0): AdaptiveAvgPool2d(output_size=1)
          )
          (1): Sequential(
            (0): AdaptiveAvgPool2d(output_size=2)
          )
          (2): Sequential(
            (0): AdaptiveAvgPool2d(output_size=4)
          )
          (3): Sequential(
            (0): AdaptiveAvgPool2d(output_size=8)
          )
        )
      )
    )
    (dau_mid): RCB(
      (body): Sequential(
        (0): Conv2d(128, 128, kernel_size=(3, 3), stride=(1, 1), padding=(1, 1), groups=4, bias=False)
        (1): LeakyReLU(negative_slope=0.2)
        (2): Conv2d(128, 128, kernel_size=(3, 3), stride=(1, 1), padding=(1, 1), groups=4, bias=False)
        (3): LeakyReLU(negative_slope=0.2)
        (4): Conv2d(128, 128, kernel_size=(3, 3), stride=(1, 1), padding=(1, 1), groups=4, bias=False)
        (5): LeakyReLU(negative_slope=0.2)
        (6): Conv2d(128, 128, kernel_size=(3, 3), stride=(1, 1), padding=(1, 1), groups=4, bias=False)
      )
      (act): LeakyReLU(negative_slope=0.2)
      (afnp): AFNPBlock(
        (Conv_query): Sequential(
          (0): Conv2d(128, 64, kernel_size=(1, 1), stride=(1, 1))
          (1): BatchNorm2d(64, eps=1e-05, momentum=0.1, affine=True, track_running_stats=True)
          (2): ReLU()
        )
        (Conv_key): Sequential(
          (0): Conv2d(128, 64, kernel_size=(1, 1), stride=(1, 1))
          (1): BatchNorm2d(64, eps=1e-05, momentum=0.1, affine=True, track_running_stats=True)
          (2): ReLU()
        )
        (Conv_value): Conv2d(128, 128, kernel_size=(1, 1), stride=(1, 1))
        (ConvOut): Conv2d(128, 128, kernel_size=(1, 1), stride=(1, 1))
        (ppm): PPMModule(
          (0): Sequential(
            (0): AdaptiveAvgPool2d(output_size=1)
          )
          (1): Sequential(
            (0): AdaptiveAvgPool2d(output_size=2)
          )
          (2): Sequential(
            (0): AdaptiveAvgPool2d(output_size=4)
          )
          (3): Sequential(
            (0): AdaptiveAvgPool2d(output_size=8)
          )
        )
      )
    )
    (dau_bot): RCB(
      (body): Sequential(
        (0): Conv2d(256, 256, kernel_size=(3, 3), stride=(1, 1), padding=(1, 1), groups=4, bias=False)
        (1): LeakyReLU(negative_slope=0.2)
        (2): Conv2d(256, 256, kernel_size=(3, 3), stride=(1, 1), padding=(1, 1), groups=4, bias=False)
        (3): LeakyReLU(negative_slope=0.2)
        (4): Conv2d(256, 256, kernel_size=(3, 3), stride=(1, 1), padding=(1, 1), groups=4, bias=False)
        (5): LeakyReLU(negative_slope=0.2)
        (6): Conv2d(256, 256, kernel_size=(3, 3), stride=(1, 1), padding=(1, 1), groups=4, bias=False)
      )
      (act): LeakyReLU(negative_slope=0.2)
      (afnp): AFNPBlock(
        (Conv_query): Sequential(
          (0): Conv2d(256, 128, kernel_size=(1, 1), stride=(1, 1))
          (1): BatchNorm2d(128, eps=1e-05, momentum=0.1, affine=True, track_running_stats=True)
          (2): ReLU()
        )
        (Conv_key): Sequential(
          (0): Conv2d(256, 128, kernel_size=(1, 1), stride=(1, 1))
          (1): BatchNorm2d(128, eps=1e-05, momentum=0.1, affine=True, track_running_stats=True)
          (2): ReLU()
        )
        (Conv_value): Conv2d(256, 256, kernel_size=(1, 1), stride=(1, 1))
        (ConvOut): Conv2d(256, 256, kernel_size=(1, 1), stride=(1, 1))
        (ppm): PPMModule(
          (0): Sequential(
            (0): AdaptiveAvgPool2d(output_size=1)
          )
          (1): Sequential(
            (0): AdaptiveAvgPool2d(output_size=2)
          )
          (2): Sequential(
            (0): AdaptiveAvgPool2d(output_size=4)
          )
          (3): Sequential(
            (0): AdaptiveAvgPool2d(output_size=8)
          )
        )
      )
    )
    (down2): DownSample(
      (body): Sequential(
        (0): Down(
          (bot): Sequential(
            (0): AvgPool2d(kernel_size=2, stride=2, padding=0)
            (1): Conv2d(64, 128, kernel_size=(1, 1), stride=(1, 1), bias=False)
          )
        )
      )
    )
    (down4): Sequential(
      (0): DownSample(
        (body): Sequential(
          (0): Down(
            (bot): Sequential(
              (0): AvgPool2d(kernel_size=2, stride=2, padding=0)
              (1): Conv2d(64, 128, kernel_size=(1, 1), stride=(1, 1), bias=False)
            )
          )
        )
      )
      (1): DownSample(
        (body): Sequential(
          (0): Down(
            (bot): Sequential(
              (0): AvgPool2d(kernel_size=2, stride=2, padding=0)
              (1): Conv2d(128, 256, kernel_size=(1, 1), stride=(1, 1), bias=False)
            )
          )
        )
      )
    )
    (up21): UpSample(
      (body): Sequential(
        (0): Up(
          (bot): Sequential(
            (0): Conv2d(128, 64, kernel_size=(1, 1), stride=(1, 1), bias=False)
            (1): Upsample(scale_factor=2.0, mode=bilinear)
          )
        )
      )
    )
    (up32): UpSample(
      (body): Sequential(
        (0): Up(
          (bot): Sequential(
            (0): Conv2d(256, 128, kernel_size=(1, 1), stride=(1, 1), bias=False)
            (1): Upsample(scale_factor=2.0, mode=bilinear)
          )
        )
      )
    )
    (conv_out): Conv2d(64, 64, kernel_size=(1, 1), stride=(1, 1), bias=False)
    (skff_top): SKFF(
      (avg_pool): AdaptiveAvgPool2d(output_size=1)
      (conv_du): Sequential(
        (0): Conv2d(64, 8, kernel_size=(1, 1), stride=(1, 1), bias=False)
        (1): LeakyReLU(negative_slope=0.2)
      )
      (fcs): ModuleList(
        (0): Conv2d(8, 64, kernel_size=(1, 1), stride=(1, 1), bias=False)
        (1): Conv2d(8, 64, kernel_size=(1, 1), stride=(1, 1), bias=False)
      )
      (softmax): Softmax(dim=1)
    )
    (skff_mid): SKFF(
      (avg_pool): AdaptiveAvgPool2d(output_size=1)
      (conv_du): Sequential(
        (0): Conv2d(128, 16, kernel_size=(1, 1), stride=(1, 1), bias=False)
        (1): LeakyReLU(negative_slope=0.2)
      )
      (fcs): ModuleList(
        (0): Conv2d(16, 128, kernel_size=(1, 1), stride=(1, 1), bias=False)
        (1): Conv2d(16, 128, kernel_size=(1, 1), stride=(1, 1), bias=False)
      )
      (softmax): Softmax(dim=1)
    )
  )
  (down): DownSample(
    (body): Sequential(
      (0): Down(
        (bot): Sequential(
          (0): AvgPool2d(kernel_size=2, stride=2, padding=0)
          (1): Conv2d(64, 64, kernel_size=(1, 1), stride=(1, 1), bias=False)
        )
      )
    )
  )
  (up): up_and_sum(
    (up): ConvTranspose2d(64, 64, kernel_size=(2, 2), stride=(2, 2))
  )
  (conv_out): Conv2d(64, 1, kernel_size=(3, 3), stride=(1, 1), padding=(1, 1), bias=False)
)
2024-11-07 01:18:06,523 INFO: Loading MIRNet_v2 model from /home/nvidia/heqing/code/MIRNetv2_1104/experiments/RealDenoising_MIRNet_v2_1106/models/net_g_4000.pth.
 load net keys <built-in method keys of collections.OrderedDict object at 0x7fc84d6f2e60>
2024-11-07 01:18:06,594 INFO: Model [ImageCleanModel] is created.
2024-11-07 01:18:06,678 INFO: Resuming training from epoch: 5, iter: 4000.
…
